best_CNNablation.model (torch, 123202 bytes, 12 tensors)

conv1.weight f4 [3, 1, 2]
0.4884513 -0.40460062 -0.5666729 -0.5918596 0.55461174 0.5770529
00000000: 4a16 fa3e d027 cfbe 7a11 11bf 1c84 17bf
00000010: 09fb 0d3f bdb9 133f

conv1.bias f4 [3]
0.062473208 0.29379663 0.4718982
00000000: e8e3 7f3d 836c 963e a49c f13e

conv2.weight f4 [10, 3, 3]
-0.15697514 -0.21624446 0.14568776 0.36024588 -0.47371763 0.043766417 -0.10973747 0.29769853
-0.19127493 0.29257154 0.03814259 -0.16095087 0.045513675 0.34206164 -0.014131726 -0.025789646
-0.6132563 0.258754 -0.1211221 0.04717291 0.042095583 0.25469023 0.2698396 -0.24684732
-0.2725923 -0.035004165 -0.037886575 -0.22195074 -0.33715528 -0.30150536 -0.2699786 0.35264033
0.11776954 0.37691414 -0.2352799 0.013352435 -0.32370573 0.5413696 -0.16427532 -0.0010013906
-0.22076195 0.31258005 0.06275197 -0.058528565 -0.21819942 -0.018716838 -0.22500983 0.2562277
-0.017080577 0.3122581 -0.39532083 -0.048011262 -0.18123287 0.4097321 0.58407134 -0.043092992
0.5212513 0.13023198 -0.060702752 -0.12270275 -0.1827065 0.3437464 0.17844087 -0.015224412
-0.55252236 0.34069517 -0.40475512 -0.28077754 0.07664631 0.07151263 0.60584307 -0.021340728
0.2071886 0.15869033 0.021250557 -0.43304297 0.035414677 0.3406671 0.3850341 -0.066997685
-0.068285525 0.18908481 0.24964279 0.27234682 -0.0051786057 -0.0028880644 0.49820757 -0.17741267
-0.20952286 -0.36686397
00000000: 17be 20be 306f 5dbe 2c2f 153e 2672 b83e
00000010: 1e8b f2be 6a44 333d 0abe e0bd f16b 983e
00000020: 93dd 43be f0cb 953e 683b 1c3d 4ed0 24be
00000030: 8c6c 3a3d b422 af3e c188 67bc cf44 d3bc
00000040: 5dfe 1cbf 677b 843e dd0e f8bd 6238 413d
00000050: 6b6c 2c3d c266 823e 6b28 8a3e 8bc5 7cbe
00000060: 3891 8bbe 8760 0fbd f42e 1bbd 0e47 63be
00000070: 9e9f acbe e95e 9abe a33a 8abe 468d b43e
00000080: 2831 f13d e4fa c03e 37ed 70be 2cc4 5a3c
00000090: c2bc a5be 3397 0a3f ca37 28be 1841 83ba
000000a0: 6c0f 62be 7e0a a03e 1b84 803d a6bb 6fbd
000000b0: ab6f 5fbe 0e54 99bc fa68 66be 4730 833e
000000c0: 91ec 8bbc 4be0 9f3e 7e67 cabe 75a7 44bd
000000d0: 1c95 39be 68c8 d13e b385 153f 4782 30bd
000000e0: ba70 053f 885b 053e 73a3 78bd 944b fbbd
000000f0: 6a17 3bbe 87ff af3e 34b9 363e d06f 79bc
00000100: 1b72 0dbf 996f ae3e 103c cfbe 13c2 8fbe
00000110: bef8 9c3d 3775 923d 8818 1b3f c0d2 aebc
00000120: 4029 543e b87f 223e a615 ae3c cfb7 ddbe
00000130: fb0e 113d eb6b ae3e 3123 c53e 1536 89bd
00000140: 48d9 8bbd 739f 413e 5ca2 7f3e 0b71 8b3e
00000150: 4bb1 a9bb ae45 3dbb 1015 ff3e abab 35be
00000160: 298d 56be 98d5 bbbe

conv2.bias f4 [10]
0.112126715 0.17426978 0.17223883 0.084130906 0.19642475 -0.060715 -0.19194229 0.0655087
-0.14917877 0.27921513
00000000: b1a2 e53d c773 323e 605f 303e d34c ac3d
00000010: 9223 493e 4bb0 78bd 858c 44be 6d29 863d
00000020: 52c2 18be 49f5 8e3e

conv3.weight f4 [20, 10, 3]
-0.25350875 0.345246 -0.10453122 0.15539297 0.034896992 0.12633528 0.15337 0.05671496
0.12401996 0.15319332 0.19220069 -0.043293048 -0.02653457 -0.12536266 0.2656851 0.09521305
0.106317036 -0.12531981 -0.16844267 0.1642173 0.022449002 -0.21117224 0.19625142 -0.068711646
-0.14955433 0.04672082 -0.0465611 -0.20898533 0.0009418427 -0.19354275 -0.04769141 0.07913534
0.06524983 -0.2718104 0.14910321 -0.068417 -0.059866026 0.065604255 -0.015666474 0.3864681
-0.0158854 -0.3221104 0.051221125 -0.15609644 0.049812946 -0.16122162 0.06496446 -0.18078558
0.024346778 0.3429654 -0.023520838 0.020666845 -0.0018160071 -0.22747402 0.1950982 0.06948222
0.022228941 -0.01895503 -0.10324752 0.15253899 -0.10534734 -0.0008138557 -0.20473649 0.008074648
-0.26851037 0.21194814 0.053540986 0.125785 0.038205203 -0.15269381 -0.18422402 -0.03940718
-0.020768983 0.056848016 0.104467906 -0.019050885 0.26044515 -0.13246429 0.10491272 0.2258849
-0.1394113 -0.27862272 0.18310963 -0.27300662 -0.16470964 -0.034538183 0.2106419 0.2985879
0.058084983 -0.23066638 0.07210544 0.0832068 0.01856339 -0.011484414 -0.036019936 -0.044134915
-0.019408524 -0.16503379 0.06198597 0.106455505 0.084922254 0.10641292 -0.14829853 0.038169235
-0.15029974 -0.17464791 -0.009159669 0.026668936 -0.14994287 -0.010775626 -0.07260004 0.040250376
0.036536977 -0.1795575 -0.053137317 0.04862374 -0.13980708 -0.16544434 0.0034156144 0.12232438
-0.111513 0.09425766 -0.05127604 0.25397587 -0.025528416 -0.11564218 0.19303751 0.16647045
-0.023601806 -0.106750265 -0.17802922 -0.06905396 -0.02137648 0.013550994 -0.01681111 0.33769143
0.20032686 -0.13878539 0.12869212 0.029517978 0.14576979 -0.22295901 -0.1408088 0.15240063
0.09116803 -0.062127754 -0.28262538 0.19745508 -0.08277379 -0.25673223 0.12493496 -0.17998914
-0.017126 -0.15928768 0.024486318 0.10594189 -0.21897699 0.01033453 0.108257875 0.017327705
0.008130009 0.038659055 -0.040546022 -0.11531855 -0.012514668 0.053092554 0.054430526 0.059531532
-0.0073858346 -0.14213304 -0.11701245 -0.21416384 0.096943244 -0.10407271 -0.07681419 0.051875822
0.05783099 -0.08896779 -0.1774534 -0.18048316 0.094131716 0.14091334 -0.14296465 -0.28418532
0.18377957 -0.12754883 -0.23907965 0.4721856 0.30964917 0.078933276 -0.19775143 0.106706604
0.012570337 0.09909944 0.050328825 -0.012217629 -0.17160077 0.078863755 0.02123119 0.088811316
0.04425659 0.2341918 -0.21556772 -0.027315587 0.0666704 -0.17434521 -0.1562622 -0.18878844
0.12514468 -0.083301514 0.32691652 -0.42867485 -0.11623936 -0.06060386 0.24865584 -0.0099597275
0.053292368 -0.13027506 0.09836925 0.22974169 -0.029778928 0.047612138 -0.08020651 -0.27106732
-0.099641226 -0.1615472 0.24596994 -0.18687938 0.14328015 0.13504453 -0.14777106 0.12592925
-0.1448921 0.06449336 0.13793129 0.24102725 -0.391204 -0.08242606 0.023899091 0.0692165
-0.13218555 -0.11433731 -0.2097273 0.12299592 0.031740963 0.025317263 0.05045208 -0.27278465
0.09821899 0.23444104 -0.13962723 -0.0074842465 -0.0064435326 0.21527337 -0.19769181 0.14919038
00000000: e6cb 81be 15c4 b03e 7714 d6bd 561f 1f3e
00000010: 26f0 0e3d 095e 013e 060d 1d3e f24d 683d
00000020: 2dfe fd3d b6de 1c3e 42d0 443e 0d54 31bd
00000030: 075f d9bc 125f 00be e107 883e 0fff c23d
00000040: bfbc d93d d653 00be 3c7c 2cbe 9428 283e
00000050: f8e6 b73c 893d 58be 22f6 483e b1b8 8cbd
00000060: c524 19be 555e 3f3d dab6 3ebd 4000 56be
00000070: fee5 763a 1230 46be 1158 43bd b611 a23d
00000080: b4a1 853d bc2a 8bbe 83ae 183e 361e 8cbd
00000090: 1436 75bd 865b 863d fa56 80bc 26df c53e
000000a0: 1922 82bc a8eb a4be 3ecd 513d bfd7 1fbe
000000b0: a908 4c3d 4817 25be 160c 853d db1f 39be
000000c0: e572 c73c 2999 af3e c6ae c0bc 844d a93c
000000d0: 1607 eeba f3ee 68be d3c7 473e b24c 8e3d
000000e0: 7819 b63c 9447 9bbc 7073 d3bd 2e33 1c3e
000000f0: 59c0 d7bd ee58 55ba 71a6 51be 874b 043c
00000100: 317a 89be ef08 593e cb4d 5b3d c8cd 003e
00000110: 0f7d 1c3d c45b 1cbe 39a5 3cbe 6c69 21bd
00000120: b723 aabc 77d9 683d 45f3 d53d 9a10 9cbc
00000130: 1159 853e b8a4 07be 7bdc d63d 5f4e 673e
00000140: d6c1 0ebe a3a7 8ebe 1781 3b3e 86c7 8bbe
00000150: a5a9 28be e977 0dbd 83b2 573e 83e0 983e
00000160: 85ea 6d3d cf33 6cbe 04ac 933d 5468 aa3d
00000170: 4012 983c 2029 3cbc a489 13bd d0c6 34bd
00000180: a0fe 9ebc 9efe 28be 00e5 7d3d 5805 da3d
00000190: b8eb ad3d 04ef d93d 92db 17be 5857 1c3d
000001a0: 2de8 19be e7d6 32be 7012 16bc d078 da3c
000001b0: a08a 19be 408c 30bc 54af 94bd 94dd 243d
000001c0: cca7 153d ecdd 37be 84a6 59bd b029 473d
000001d0: 9629 0fbe 3e6a 29be 80d8 5f3b 3485 fa3d
000001e0: ee60 e4bd 290a c13d d306 52bd 2009 823e
000001f0: f820 d1bc cfd5 ecbd a0ab 453e 3b77 2a3e
00000200: 9358 c1bc e29f dabd 4b4d 36be 2a6c 8dbd
00000210: ba1d afbc fd04 5e3c 74b7 89bc e4e5 ac3e
00000220: 7c22 4d3e c21d 0ebe dec7 033e b0cf f13c
00000230: ad44 153e 5e4f 64be 2f30 10be e90e 1c3e
00000240: 4eb6 ba3d ac79 7ebd 46b4 90be aa31 4a3e
00000250: 4e85 a9bd 6872 83be e6dd ff3d 134f 38be
00000260: d34b 8cbc 4f1c 23be 8897 c83c 10f8 d83d
00000270: 813b 60be 2952 293c 4eb6 dd3d d5f2 8d3c
00000280: bb33 053c f558 1e3d 9613 26bd 222c ecbd
00000290: 520a 4dbc 9477 593d 8bf2 5e3d 56d7 733d
000002a0: df04 f2bb 538b 11be 39a4 efbd c44d 5bbe
000002b0: 2e8a c63d 1324 d5bd c250 9dbd be7b 543d
000002c0: 30e0 6c3d bf34 b6bd 58b6 35be 94d0 38be
000002d0: 21c8 c03d 964b 103e 5365 12be bd80 91be
000002e0: b630 3c3e 299c 02be 4cd1 74be 50c2 f13e
000002f0: 568a 9e3e c5a7 a13d 5a7f 4abe fe88 da3d
00000300: d1f3 4d3c a6f4 ca3d 9925 4e3d 732c 48bc
00000310: 1db8 2fbe 5283 a13d 08ed ad3c b5e2 b53d
00000320: 6646 353d facf 6f3e c9bd 5cbe f0c4 dfbc
00000330: 7e8a 883d 8d87 32be 3303 20be c251 41be
00000340: ed25 003e fc99 aabd 9a61 a73e 457b dbbe
00000350: e70e eebd c13b 78bd a39f 7e3e 202e 23bc
00000360: 1949 5a3d d366 05be d175 c93d 6841 6b3e
00000370: f0f2 f3bc f204 433d 5043 a4bd 56c9 8abe
00000380: b310 ccbd a16c 25be 8bdf 7b3e 4f5d 3fbe
00000390: 08b8 123e 1d49 0a3e 4c51 17be 99f3 003e
000003a0: 985e 14be 1815 843d dc3d 0d3e d9cf 763e
000003b0: e44b c8be ffce a8bd 07c8 c33c 61c1 8d3d
000003c0: a65b 07be ae29 eabd c1c2 56be 49e5 fb3d
000003d0: d002 023d 2666 cf3c d7a6 4e3d 6eaa 8bbe
000003e0: 0a27 c93d 5011 703e 71fa 0ebe 693e f5bb
000003f0: 4524 d3bb 9f70 5c3e b96f 4abe 5dc5 183e

conv3.bias f4 [20]
-0.037306096 0.00039413315 0.051882483 -0.17333183 -0.21149261 -0.012446819 -0.00022908747 0.09841665
-0.06673023 0.122056626 -0.100898676 0.016392186 0.027377037 -0.19341157 0.102231435 -0.04894514
-0.048989713 -0.10359233 -0.17127281 0.04787682
00000000: 47ce 18bd a8a3 ce39 ba82 543d e67d 31be
00000010: 8591 58be beed 4bbc 3337 70b9 ab8e c93d
00000020: dca9 88bd d3f8 f93d f7a3 cebd e848 863c
00000030: cf45 e03c af0d 46be b75e d13d b37a 48bd
00000040: 70a9 48bd 3728 d4bd 2462 2fbe 7c1a 443d

linear.0.weight f4 [128, 160]
0.08906426 0.087946005 -0.05383699 -0.07009808 -0.16329598 0.1704484 0.17849766 0.050405823
0.06778352 -0.09729836 -0.095144525 -0.10890319 0.09009423 -0.05385957 0.034948587 0.118608676
-0.027298175 -0.008031311 -0.11836406 0.016795496 0.05067812 0.0023165136 0.16973265 0.0515388
-0.016714007 0.031690203 0.0015357584 0.07808744 0.052943073 0.027041197 -0.017289437 0.050229304
-0.056573357 -0.08786731 -0.22232868 0.14496091 -0.037993427 -0.14876351 -0.020424291 -0.25651428
-0.00609947 0.076839246 0.004883184 0.066359706 0.027100667 -0.017941652 0.045384243 0.04381139
0.0858599 0.16379207 0.21189627 -0.07483613 -0.1568127 -0.14049846 -0.1041119 -0.122237876
0.10124178 -0.093101695 -0.08682356 -0.03927818 0.021257931 0.2000399 -0.054348595 -0.13146308
-0.039563637 0.14448361 -0.04016679 0.116419435 -0.09019318 -0.097153544 0.10557883 -0.18940051
0.19174519 -0.06445814 -0.16545537 0.028293364 0.18791997 0.087525345 -0.16601017 0.10783262
-0.03352369 0.16211247 0.03279496 0.060232967 0.21075286 0.00078382506 0.040485952 -0.119228944
0.082828455 0.18550338 -0.023095665 -0.10939163 -0.17994267 -0.022181459 0.06254012 0.20794024
-0.118332535 0.11801469 -0.038621627 -0.091384344 0.11851815 0.022050198 0.09194255 -0.0817103
0.004748608 0.07034867 0.07396933 0.041795306 -0.076139756 -0.0017947555 0.0696611 0.07818254
-0.12370606 -0.046250746 0.15198073 0.08513353 -0.0006347543 0.0542954 -0.029651033 0.06514726
0.039568048 0.074611075 -0.16450495 0.12262264 -0.07360029 0.017515369 -0.07520469 -0.0003047688
0.0757922 -0.01943523 0.050301544 -0.06082418 -0.027826168 0.033633895 -0.073232986 -0.055657048
0.057308353 -0.03245152 -0.008062571 0.054024316 -0.00020974874 -0.065887384 0.011102907 -0.031291
0.063710965 0.0674743 0.065326326 0.06168755 -0.068455726 -0.025351737 0.054335184 0.03349717
0.007562205 0.013155848 0.016563691 -0.042034708 -0.054285698 0.0045979023 0.02459082 0.057021894
0.01430056 0.0025995253 0.029945983 -0.050537188 -0.22058909 0.1230971 0.11442668 -0.0050425734
0.16411513 -0.12306604 -0.20462646 -0.049260486 0.17688482 -0.15268813 -0.112172805 0.05418117
-0.05955507 0.11785 -0.08369678 0.04831072 -0.11824605 0.104329556 0.050647233 0.10548686
-0.050371207 -0.007896647 -0.027668431 0.006127149 0.04465758 0.0340615 -0.05852168 0.02934336
-0.25375155 0.009544662 -0.3358644 0.19744565 -0.16941653 -0.3273672 0.2264171 -0.46009263
0.039474778 -0.07025673 0.032661736 0.036145583 -0.061599657 -0.047781404 0.05171701 -0.028681595
0.14099754 0.08438193 0.1967175 -0.04439336 0.005133455 -0.085869074 -0.13312955 -0.12553601
0.049191963 -0.09839656 -0.09242885 0.08163701 0.107185595 0.154408 -0.13352765 -0.13435054
-0.12898785 0.10360201 -0.044982176 0.18460436 -0.023299605 -0.12413805 0.10890552 -0.27764663
0.14187913 -0.037384804 -0.058496416 0.15279292 0.110665224 0.0019618392 -0.19107252 0.05687051
-0.099417746 0.19911104 0.05169508 -0.012096305 0.10489198 0.045093212 0.033636533 -0.10933244
-0.0024857773 0.15778485 -0.009407338 -0.11018548 -0.13197082 0.054764964 0.11139051 0.14700468
00000000: 5367 b63d 091d b43d 2d84 5cbd 958f 8fbd
00000010: 1037 27be 068a 2e3e 17c8 363e 5676 4e3d
00000020: 16d2 8a3d 5d44 c7bd 22db c2bd a308 dfbd
00000030: 5383 b83d da9b 5cbd 4026 0f3d 1be9 f23d
00000040: 6ca0 dfbc c395 03bc db68 f2bd b596 893c
00000050: dc93 4f3d a6d0 173b 65ce 2d3e 591a 533d
00000060: d0eb 88bc 96cd 013d 804b c93a 4fec 9f3d
00000070: d6da 583d 8085 dd3c 94a2 8dbc 3ebd 4d3d
00000080: 77b9 67bd c7f3 b3bd 21aa 63be a270 143e
00000090: ff9e 1bbd 7655 18be d850 a7bc d755 83be
000000a0: 10de c7bb e55d 9d3d 1e03 a03b 99e7 873d
000000b0: 3802 de3c 5ffa 92bc d4e4 393d 9273 333d
000000c0: 51d7 af3d 1cb9 273e 56fb 583e af43 99bd
000000d0: 8293 20be d4de 0fbe 9f38 d5bd da57 fabd
000000e0: da57 cf3d 1aac bebd 8dd0 b1bd 28e2 20bd
000000f0: 1d25 ae3c 42d7 4c3e a29c 5ebd 429e 06be
00000100: 7b0d 22bd 83f3 133e ef85 24bd 506d ee3d
00000110: 34b7 b8bd 70f8 c6bd b739 d83d 35f2 41be
00000120: da58 443e a102 84bd 226d 29be 7cc7 e73c
00000130: 186e 403e 7d40 b33d 92fe 29be 59d7 dc3d
00000140: 2350 09bd d000 263e 0254 063d d8b6 763d
00000150: 99cf 573e 9c79 4d3a 99d4 253d 4e2e f4bd
00000160: f7a1 a93d 99f4 3d3e 1f33 bdbc b808 e0bd
00000170: e442 38be e4b5 b5bc 0915 803d 49ee 543e
00000180: 5458 f2bd b0b1 f13d b631 1ebd b727 bbbd
00000190: a5b9 f23d 9ea2 b43c 604c bc3d bb57 a7bd
000001a0: 369a 9b3b f712 903d 3b7d 973d 8e31 2b3d
000001b0: 29ef 9bbd 003e ebba 7baa 8e3d 2b1e a03d
000001c0: 9a59 fdbd 6c71 3dbd d6a0 1b3e 7d5a ae3d
000001d0: a465 26ba da64 5e3d b9e6 f2bc ed6b 853d
000001e0: 1b12 223d b1cd 983d fc73 28be 9421 fb3d
000001f0: c0bb 96bd 647c 8f3c eb04 9abd 60c9 9fb9
00000200: f138 9b3d a236 9fbc fe08 4e3d c622 79bd
00000210: b4f3 e3bc b2c3 093d 2dfb 95bd a5f8 63bd
00000220: 2abc 6a3d e3eb 04bd e018 04bc 9a48 5d3d
00000230: 00f0 5bb9 f7ef 86bd f8e8 353c fe2a 00bd
00000240: e57a 823d f72f 8a3d cfc9 853d 16ac 7c3d
00000250: 8432 8cbd 72ae cfbc 928e 5e3d 5434 093d
00000260: 60cc f73b a08b 573c 94b0 873c 962c 2cbd
00000270: ae5a 5ebd 00aa 963b b072 c93c ca8f 693d
00000280: e54c 6a3c cc5c 2a3b 4751 f53c 1500 4fbd
00000290: 1be2 61be 551a fc3d 8958 ea3d 2c3c a5bb
000002a0: cc0d 283e 0c0a fcbd 9989 51be 5dc5 49bd
000002b0: 4b21 353e 475a 1cbe dbba e5bd 13ed 5d3d
000002c0: 04f0 73bd 575b f13d 3869 abbd 76e1 453d
000002d0: fc2a f2bd bcaa d53d 7973 4f3d 7f09 d83d
000002e0: 0a52 4ebd f060 01bc e8a8 e2bc 40c6 c83b
000002f0: deea 363d 1284 0b3d 6eb4 6fbd 7c61 f03c
00000300: b9eb 81be 3761 1c3c 6bf6 abbe 312f 4a3e
00000310: 877b 2dbe ac9c a7be e2d9 673e 4391 ebbe
00000320: 4eb0 213d c3e2 8fbd 50c8 053d 640d 143d
00000330: ec4f 7cbd 6fb6 43bd 37d5 533d aaf5 eabc
00000340: a961 103e 6fd0 ac3d 5070 493e d0d5 35bd
00000350: 8b36 a83b 20dc afbd 1d53 08be 838c 00be
00000360: 837d 493d 2384 c9bd 564b bdbd 4e31 a73d
00000370: 1f84 db3d 211d 1e3e 79bb 08be 3093 09be
00000380: 6415 04be 4a2d d43d 3b3f 38bd ed08 3d3e
00000390: d0de bebc 173c febd db09 df3d b327 8ebe
000003a0: c348 113e cf20 19bd f099 6fbd bf75 1c3e
000003b0: 73a4 e23d 3392 003b 84a8 43be 0df1 683d
000003c0: 889b cbbd c4e3 4b3e 38be 533d 952f 46bc
000003d0: 9bd1 d63d a9b3 383d 76c6 093d b0e9 dfbd
000003e0: 6ce8 22bb 5a92 213e 3c21 1abc eda8 e1bd
000003f0: 5c23 07be 3a51 603d b520 e43d 6588 163e

linear.0.bias f4 [128]
-0.032948088 0.027860252 0.038600802 0.07532521 -0.006758157 0.05124556 -0.09877571 -0.01517312
0.06915726 -0.023002014 0.08475114 -0.044999067 -0.0012842319 -0.032651167 0.023420034 -0.058488827
0.07363394 -0.002087784 0.03683927 -0.018969618 -0.06948677 -0.040447515 -0.065394424 0.00918554
-0.04604686 -0.013370689 -0.03526033 -0.033388656 -0.0018376029 0.06136557 0.034232587 0.116535604
-0.06161838 -0.076225586 -0.011807286 -0.07178801 0.020206057 -0.073631674 0.017747648 -0.02313821
0.028695304 0.029245364 -0.0073766424 -0.0832205 -0.050728176 0.004867326 -0.06471772 0.025308505
-0.046538994 -0.018323138 -0.025263501 0.054125745 0.012101948 0.045008622 0.0071641305 -0.04872565
-0.025933009 -0.027470175 0.040193554 -0.020851888 -0.024682261 0.03186876 0.0035780866 0.04868329
0.052268777 -0.020519014 0.050950818 -0.018969558 0.013621573 0.047980234 0.012639979 -0.0049144016
0.009105364 0.01863132 -0.049078174 0.03733418 0.031043867 -0.070432924 -0.034748673 -0.057089213
0.035025924 -0.00578616 0.0837989 0.0059939087 0.07830594 0.01479902 0.05741161 0.0008870716
0.06269172 -0.029424872 0.030821694 0.07833743 -0.034104485 0.02651732 -0.042075735 -0.0072956565
-0.016800664 0.07502804 0.020754019 0.082113676 -0.02735019 -0.050064985 -0.020622406 0.052501544
0.015806202 -0.015620933 0.06097973 0.019834619 -0.018336544 -0.103614725 0.04888862 -0.07812883
-0.062102985 -0.04164685 0.020157743 -0.05540464 -0.040239856 0.029343152 0.0016902199 -0.028376414
-0.031545218 0.040303975 0.042192295 -0.036016658 0.03583009 0.0033640326 0.023093605 0.004282962
00000000: 93f4 06bd 2f3b e43c e01b 1e3d 1b44 9a3d
00000010: 8873 ddbb dde6 513d eb4a cabd ae98 78bc
00000020: 52a2 8d3d b86e bcbc 0192 ad3d f150 38bd
00000030: ac53 a8ba 3bbd 05bd 5fdb bf3c fb91 6fbd
00000040: 64cd 963d 34d3 08bb c6e4 163d 2c66 9bbc
00000050: 144f 8ebd 4bac 25bd 83ed 85bd f27e 163c
00000060: a29b 3cbd bc10 5bbc 236d 10bd 8bc2 08bd
00000070: b9db f0ba 775a 7b3d 7837 0c3d 38aa ee3d
00000080: 8e63 7cbd 291c 9cbd 5973 41bc 9805 93bd
00000090: 2c87 a53c 34cc 96bd 8463 913c 588c bdbc
000000a0: 6a12 eb3c f993 ef3c c3b7 f1bb 826f aabd
000000b0: 59c8 4fbd 177e 9f3b b98a 84bd c853 cf3c
000000c0: ac9f 3ebd 681a 96bc 67f5 cebc f5b2 5d3d
000000d0: 4047 463c f65a 383d 15c1 ea3b 8c94 47bd
000000e0: 7671 d4bc 2209 e1bc ffa1 243d 94d1 aabc
000000f0: 7432 cabc d188 023d 557e 6a3b 2168 473d
00000100: c917 563d 7e17 a8bc ceb1 503d 0c66 9bbc
00000110: 052d 5f3c ec86 443d ea17 4f3c fd08 a1bb
00000120: aa2e 153c b6a0 983c 3206 49bd baeb 183d
00000130: b54f fe3c 233f 90bd a054 0ebd 61d6 69bd
00000140: 5877 0f3d d499 bdbb c29e ab3d 8d68 c43b
00000150: dd5e a03d 9777 723c 7028 6b3d 5e8a 683a
00000160: 8464 803d 6e0c f1bc c77d fc3c 606f a03d
00000170: 25b1 0bbd da3a d93c 9b57 2cbd 6710 efbb
00000180: 8ca1 89bc 4da8 993d 5504 aa3c 372b a83d
00000190: 810d e0bc f110 4dbd 52f0 a8bc dc0b 573d
000001a0: 027c 813c f1ee 7fbc e2c5 793d 367c a23c
000001b0: 8536 96bc f533 d4bd 6f3f 483d 0202 a0bd
000001c0: b35f 7ebd e395 2abd da21 a53c faef 62bd
000001d0: 8cd2 24bd 0d61 f03c 5e8a dd3a a775 e8bc
000001e0: 8f35 01bd c815 253d d4d1 2c3d 3486 13bd
000001f0: 93c2 123d 1a77 5c3b cd2e bd3c 1758 8c3b

linear.1.weight f4 [64, 128]
0.008408281 0.0520026 0.110065356 0.23104714 0.11970738 0.26778454 -0.18790384 0.11571572
0.12700808 -0.07413902 0.28117839 0.06241233 0.1303783 -0.07292696 0.34965512 -0.041969452
0.16128324 0.21194097 0.12541091 -0.027903128 -0.14259182 -0.009405663 -0.3058528 0.17675643
-0.41210303 0.24796742 -0.06156616 -0.4042935 -0.18048546 0.11270192 -0.16741751 0.20002688
-0.23201129 -0.31609735 0.22117503 -0.17852421 -0.06716036 -0.056711134 -0.012670967 -0.22907238
0.14942537 0.018848775 -0.011176579 -0.0917385 -0.116768345 -0.1641628 -0.1067768 0.04531017
-0.017381953 -0.006725157 0.33307692 -0.03920535 0.029390652 0.08678544 0.16306622 -0.21978396
-0.5373076 -0.029046442 0.2837896 -0.13231526 0.105943166 0.00742753 -0.38390684 -0.03272312
0.24179444 -0.07948294 -0.050303977 -0.038560223 -0.104518555 0.080546066 -0.17062709 0.08884021
-0.06545573 0.034676313 -0.06863606 -0.12390106 -0.09601613 -0.15869321 0.06456546 0.03298323
-0.087178245 0.22348413 0.4366617 -0.10309734 0.2585406 -0.02439376 0.1213016 -0.2685712
0.059629627 -0.14044775 -0.060761508 -0.08028133 -0.061153818 -0.037472736 0.32469475 -0.049626768
0.16882268 0.32771078 0.11828459 0.17750557 -0.16952449 -0.064677365 -0.20372416 0.025937546
-0.0046855095 0.033555422 -0.13561031 0.15812685 -0.06250024 -0.1687161 0.22139868 -0.026415575
-0.008296362 0.124473736 -0.22682364 -0.027181836 -0.26007518 0.16137287 -0.25826824 -0.018546248
-0.104406655 -0.015992815 0.32178992 0.038483515 -0.1902389 0.14974095 0.3687441 0.13584463
-0.07188625 -0.13647123 0.15917623 -0.077410996 -0.023427378 -0.06365895 0.012317712 -0.18105455
-0.09579682 -0.0869169 -0.06699986 -0.21485299 -0.02208848 0.25504896 -0.2328073 -0.12874429
0.0023402884 -0.16001052 -0.059010595 -0.037218712 0.014626183 0.0015765632 0.11287701 -0.013345992
0.18377614 -0.21495967 -0.081409685 0.28078538 0.033878073 -0.1631822 -0.028806156 0.044901803
0.3578933 0.14456724 -0.16196457 -0.0536919 0.03599543 0.08666012 -0.024838427 0.11045348
-0.14829952 -0.015694903 0.10308777 0.1037615 0.15359716 -0.1572162 0.0627121 -0.0073487465
-0.027285598 0.0034299048 0.008739677 -0.07457746 -0.15579057 -0.06671671 -0.10382154 0.071465746
0.06164686 -0.0032281068 -0.08231835 0.15730177 -0.092540175 0.036951575 0.13550907 -0.058661953
0.022413922 0.0074923593 0.072080895 -0.08261633 0.12686752 0.030731397 0.041211624 0.14919949
0.16781826 -0.056480996 0.034028355 0.010814863 0.101828516 0.0014389973 -0.024301236 0.101977974
0.03127946 -0.0064675095 -0.21984765 0.033062086 -0.12781163 -0.148109 -0.027416589 -0.06796951
-0.10429379 0.22783583 0.3063176 -0.025263071 0.15024336 0.1393437 -0.2553835 -0.22059435
0.0024561968 -0.1322178 -0.1232261 -0.065132886 0.1923755 0.15882525 0.15389785 -0.08264869
-0.06565085 -0.01737788 -0.14219408 -0.07817509 -0.11530845 0.0033707547 0.0015007341 0.11053605
-0.15489161 -0.020669175 0.05887697 -0.11485704 0.19138171 -0.14957376 0.027358526 -0.11591046
0.12329783 -0.2102833 -0.018851416 0.06006249 0.11864245 -0.212821 0.0059372704 -0.062048785
00000000: e3c2 093c ae00 553d f269 e13d 9f97 6c3e
00000010: 2529 f53d 0e1b 893e dd69 40be 5dfc ec3d
00000020: 680e 023e 33d6 97bd 9df6 8f3e 12a4 7f3d
00000030: e481 053e bb5a 95bd ff05 b33e 29e8 2bbd
00000040: 6f27 253e 0e07 593e b86b 003e 1a95 e4bc
00000050: 9703 12be 361a 1abc bd98 9cbe a3ff 343e
00000060: 2bff d2be 2ceb 7d3e cc2c 7cbd 8fff cebe
00000070: 2ed1 38be 44d0 e63d 7f6f 2bbe d9d3 4c3e
00000080: 5e94 6dbe 83d7 a1be b57b 623e 0dcf 36be
00000090: 5f8b 89bd ef49 68bd e399 4fbc f391 6abe
000000a0: f702 193e bf68 9a3c f81d 37bc 65e1 bbbd
000000b0: 3e24 efbd 4b1a 28be cbad dabd 2897 393d
000000c0: 9964 8ebc b55e dcbb 0f89 aa3e ca95 20bd
000000d0: aac4 f03c 91bc b13d d5fa 263e 0c0f 61be
000000e0: fe8c 09bf cef2 edbc df4c 913e a77d 07be
000000f0: bbf8 d83d a362 f33b 708f c4be ae08 06bd
00000100: f698 773e f4c7 a2bd 8b0b 4ebd 53f1 1dbd
00000110: d30d d6bd 56f5 a43d deb8 2ebe dbf1 b53d
00000120: a70d 86bd c008 0e3d 1091 8cbd d7bf fdbd
00000130: 1ba4 c4bd 7980 22be e53a 843d 6c19 073d
00000140: 828a b2bd 06d9 643e 1f92 df3e b324 d3bd
00000150: 6f5f 843e 6cd5 c7bc f96c f83d 2a82 89be
00000160: 323e 743d 89d1 0fbe 0fe1 78bd 8a6a a4bd
00000170: 6d7c 7abd 037d 19bd 643e a63e 7045 4bbd
00000180: dadf 2c3e b5c9 a73e 313f f23d 05c4 353e
00000190: d497 2dbe 9175 84bd 119d 50be fa7a d43c
000001a0: e788 99bb 6971 093d 6edd 0abe 01ec 213e
000001b0: 2000 80bd eac3 2cbe 56b6 623e 7a65 d8bc
000001c0: 77ed 07bc 16ec fe3d 7544 68be 71ac debc
000001d0: 9328 85be ee3e 253e bc3b 84be 4dee 97bc
000001e0: 28d3 d5bd 5d03 83bc a6c1 a43e e4a0 1d3d
000001f0: fccd 42be b155 193e 07cc bc3e db1a 0b3e
00000200: 1939 93bd 1dbf 0bbe 18ff 223e a889 9ebd
00000210: c6ea bfbc a05f 82bd 3bd0 493c 5d66 39be
00000220: 2031 c4bd 7d01 b2bd 3937 89bd 6c02 5cbe
00000230: e6f2 b4bc c795 823e 0965 6ebe 8bd5 03be
00000240: 865f 193b ccd9 23be 18b5 71bd a672 18bd
00000250: a8a2 6f3c afa4 ce3a 102c e73d 26a9 5abc
00000260: d02f 3c3e 631e 5cbe 1fba a6bd 1ac3 8f3e
00000270: bcc3 0a3d 3c19 27be e3fa ebbc f4ea 373d
00000280: ca3d b73e 6f09 143e 0ada 25be 0aec 5bbd
00000290: f26f 133d dc7a b13d f579 cbbc 6f35 e23d
000002a0: d4db 17be 9992 80bc ae1f d33d e980 d43d
000002b0: 9348 1d3e 49fd 20be 346f 803d c1cd f0bb
000002c0: 0c86 dfbc 41c8 603b dd30 0f3c 11bc 98bd
000002d0: 9087 1fbe c5a2 88bd 63a0 d4bd a25c 923d
000002e0: 6b81 7c3d a58e 53bb 8696 a8bd b713 213e
000002f0: b485 bdbd 895a 173d e4c2 0a3e 8447 70bd
00000300: 679d b73c 7782 f53b 269f 933d c032 a9bd
00000310: 8fe9 013e 69c0 fb3c 85cd 283d c0c7 183e
00000320: 8dd8 2b3e 9e58 67bd 5161 0b3d d330 313c
00000330: 788b d03d bd9c bc3a 6313 c7bc d4d9 d03d
00000340: e41e 003d 67ed d3bb be1f 61be 1c6c 073d
00000350: 0de1 02be e3a9 17be c198 e0bc 9933 8bbd
00000360: fc97 d5bd cc4d 693e a9d5 9c3e 80f4 cebc
00000370: 65d9 193e 1db0 0e3e a0c1 82be 7ce3 61be
00000380: 25f8 203b 1a64 07be f75d fcbd 6464 85bd
00000390: 15fe 443e 16a3 223e 6697 1d3e b743 a9bd
000003a0: f473 86bd 0e5c 8ebc 539b 11be 431a a0bd
000003b0: d626 ecbd e1e7 5c3b 48b4 c43a b960 e23d
000003c0: e89b 1ebe 6752 a9bc fa28 713d 2b3a ebbd
000003d0: 91f9 433e dd29 19be fd1e e03c 7762 edbd
000003e0: 9383 fc3d 8154 57be 496e 9abc 1604 763d
000003f0: d0fa f23d c0ed 59be 6f8d c23b de26 7ebd

linear.1.bias f4 [64]
0.1021715 0.037976503 -0.022494452 0.077825 0.024695566 -0.01559064 0.0651447 -0.014749114
-0.07028956 -0.014903251 0.039017092 -0.04965285 -0.075038806 0.052062836 0.011347924 0.031154454
0.12192508 0.031207107 0.033397246 -0.14643069 0.005840405 0.18533516 0.021244599 0.0012957153
0.021761272 0.056799773 0.04697589 -0.010552341 -0.017648898 -0.0006334868 -0.061897416 0.044176567
-0.022896934 -0.01455107 0.061019164 0.05411948 -0.16915515 -0.05443471 0.067030996 0.052526556
0.07369979 -0.21328714 -0.058858536 0.1043365 0.038734987 0.048386723 0.09729529 -0.021033464
0.0402174 0.024428807 0.009227114 -0.099342436 0.12457289 -0.027553603 -0.05921143 -0.007003216
0.0759116 0.09249091 -0.07832005 -0.045585293 0.037613265 -0.0052976026 -0.0077047753 -0.01834141
00000000: 4b3f d13d 408d 1b3d 4946 b8bc b762 9f3d
00000010: 5b4e ca3c e26f 7fbc 966a 853d 45a6 71bc
00000020: f9f3 8fbd c42c 74bc 63d0 1f3d c960 4bbd
00000030: f2ad 99bd d73f 553d a5ec 393c a037 ff3c
00000040: dbb3 f93d 0ca6 ff3c 8dcb 083d edf1 15be
00000050: de60 bf3b 80c8 3d3e 2709 ae3c fed4 a93a
00000060: b244 b23c e1a6 683d ca69 403d bae3 2cbc
00000070: 6c94 90bc 9410 26ba 2588 7dbd 7df2 343d
00000080: 5a92 bbbc 9c67 6ebc 3bef 793d 63ac 5d3d
00000090: 0237 2dbe eef6 5ebd 8c47 893d 1626 573d
000000a0: eaef 963d f267 5abe a615 71bd 60ae d53d
000000b0: 94a8 1e3d 2831 463d c142 c73d 5f4e acbc
000000c0: 00bb 243d ec1e c83c 522d 173c 0c74 cbbd
000000d0: 1220 ff3d 18b8 e1bc af87 72bd 3c7b e5bb
000000e0: 8a77 9b3d e06b bd3d 4366 a0bd a5b7 3abd
000000f0: 5e10 1a3d 8397 adbb 5778 fcbb ba40 96bc

linear.2.weight f4 [2, 64]
-0.044709012 -0.12412553 -0.1802364 0.045281928 0.2093839 -0.0827341 0.14179114 0.045710266
-0.07803485 0.12294337 0.2354022 -0.19438864 0.20597656 0.10232545 0.05395465 0.16015543
-0.04422112 -0.31533432 0.09408769 0.06752104 0.24357145 -0.11737586 0.19020098 -0.21354423
0.061612092 0.049889743 0.082199275 -0.014561136 -0.18177724 0.079702154 -0.119528614 -0.012979458
0.045538526 -0.1767203 -0.32081035 -0.25644583 0.0778981 -0.15203752 -0.2709013 -0.23242311
-0.32644576 0.31639212 -0.11129326 0.058997218 0.072240144 0.1270351 0.10162717 0.021107374
0.044845667 -0.1334405 -0.036036856 -0.06737502 -0.37057698 -0.14870745 0.13983816 0.15272729
-0.0017228631 -0.0857767 -0.038214225 -0.08646529 -0.3709341 -0.029731765 0.2704138 0.371529
-0.38347065 0.054722823 0.25229928 -0.13016132 -0.21672039 0.103871875 -0.05347719 -0.19563687
0.05075822 -0.16462052 0.02308619 0.24054442 -0.105261005 -0.14931938 -0.17203721 -0.037597597
-0.3774081 0.06080969 -0.1426511 0.27649438 -0.038700618 -0.35293692 -0.12867227 0.19165497
-0.058693014 -0.102873564 -0.288103 -0.21711844 0.13473004 -0.12911676 0.08002606 -0.37129283
0.2594723 0.09673577 -0.11705711 0.09519848 0.31935024 0.16743267 -0.004230199 0.0826171
0.010238538 0.1754183 0.19942316 -0.1918786 -0.21594997 -0.05202258 -0.27701998 -0.086681776
-0.18486145 0.101200506 0.17873286 0.16422439 -0.08298081 0.004458796 -0.072030656 -0.17709725
-0.21733196 -0.35755068 0.23966189 0.043926723 -0.020533396 0.13102454 0.027594084 0.020199867
00000000: cc20 37bd 8735 febd e48f 38be 8b79 393d
00000010: bc68 563e 7f70 a9bd b231 113e b03a 3b3d
00000020: bcd0 9fbd bcc9 fb3d 460d 713e d10d 47be
00000030: 85eb 523e 0190 d13d 8dff 5c3d c9ff 233e
00000040: 3521 35bd 8073 a1be 0cb1 c03d 7948 8a3d
00000050: cb6a 793e c162 f0bd 0cc4 423e 57ab 5abe
00000060: f65c 7c3d 3059 4c3d 1858 a83d d591 6ebc
00000070: d023 3abe e23a a33d 6bcb f4bd cba7 54bc
00000080: 9b86 3a3d 2bf6 34be 4141 a4be de4c 83be
00000090: 0a89 9f3d b9af 1bbe 93b3 8abe 5300 6ebe
000000a0: e623 a7be 26fe a13e b8ed e3bd 11a7 713d
000000b0: a4f2 933d 7d15 023e e821 d03d 5fe9 ac3c
000000c0: 17b0 373d a0a4 08be 629b 13bd eafb 89bd
000000d0: 44bc bdbe c446 18be bc31 0f3e 8b64 1c3e
000000e0: b1d1 e1ba b2ab afbd 8586 1cbd b714 b1bd
000000f0: 13eb bdbe 0890 f3bc ad73 8a3e 0d39 be3e
00000100: 4456 c4be 0a25 603d 5f2d 813e 0249 05be
00000110: f3eb 5dbe c7ba d43d e60a 5bbd 0855 48be
00000120: dae7 4f3d 4892 28be 401f bd3c 4751 763e
00000130: 1593 d7bd 2ee7 18be 862a 30be f0ff 19bd
00000140: a23b c1be 9513 793d 2113 12be ac90 8d3e
00000150: 8a84 1ebd 26b4 b4be aac2 03be 3341 443e
00000160: 1668 70bd 60af d2bd 3d82 93be 4c54 5ebe
00000170: acf6 093e 2f37 04be b4e4 a33d 181a bebe
00000180: 8ed9 843e 671d c63d a3bb efbd 6cf7 c23d
00000190: e081 a33e 7873 2b3e 7b9d 8abb 2733 a93d
000001a0: 8abf 273c dba0 333e 9635 4c3e d37b 44be
000001b0: fd21 5dbe a115 55bd 90d5 8dbe 3786 b1bd
000001c0: 524c 3dbe 3642 cf3d bf05 373e 702a 283e
000001d0: d8f1 a9bd 171b 923b cf84 93bd fb58 35be
000001e0: 458c 5ebe e210 b7be ed69 753e 82ec 333d
000001f0: a735 a8bc 4c2b 063e fd0c e23c 317a a53c

linear.2.bias f4 [2]
-0.14387663 -0.16222021
00000000: 6554 13be 0e1d 26be
