best_CNN.model (torch, 143554 bytes, 12 tensors)

conv1.weight f4 [3, 1, 2]
0	0xbf0bca7c	-0.5460584
1	0xbf47693b	-0.77894944
2	0x3ef15ba3	0.47140226
3	0x3f20d04a	0.62817824
4	0xbf48ae64	-0.783911
5	0x3cb93bb7	0.022611482

conv1.bias f4 [3]
0	0x3e790dd5	0.24321683
1	0x3dfccf5f	0.123442404
2	0xbd4ceb06	-0.050028823

conv2.weight f4 [10, 3, 3]
0	0x3d9dd9c1	0.07707549
1	0x3dc0a43f	0.094063275
2	0x3ed10f4f	0.40831992
3	0xbdcffb64	-0.10155371
4	0xbec508b6	-0.38483208
5	0xbf0c7288	-0.5486226
6	0x3d62e6a3	0.055395734
7	0xbe8fc093	-0.2807661
8	0x3d8eb0e3	0.06967332
9	0x3b35d4b9	0.00277452
10	0xbefa88e9	-0.4893258
11	0x3ec1f294	0.37880385
12	0x3d25a1dd	0.040437568
13	0x3cf75830	0.030193418
14	0xbe8d6ea3	-0.27623472
15	0x3dbd429c	0.0924122
16	0x3cda1131	0.026619526
17	0xbdfafcff	-0.122552864
18	0xbd3aff4c	-0.045653626
19	0x3c72f0d5	0.014827927
20	0x3bf09b5a	0.007342738
21	0xbd326dcb	-0.043561738
22	0xbea6b1ab	-0.32557425
23	0x3f14c9e7	0.5812058
24	0x3cab2a68	0.020894244
25	0xbce9854e	-0.028505947
26	0x3ce64214	0.02810768
27	0xbecedfca	-0.40405113
28	0x3d9b3790	0.07578957
29	0xbe26eb42	-0.16300681
30	0x3c6b2c35	0.0143538015
31	0xbebe3a6c	-0.37153947
32	0xbe25e325	-0.1619993
33	0xbe63a8f1	-0.22232415
34	0xbe1cc838	-0.15310752
35	0xbe5ddf09	-0.21667112
36	0x3cbcfefe	0.023070809
37	0xbe2db150	-0.1696217
38	0xbdb087b4	-0.08619633
39	0xbeb24ffc	-0.34826648
40	0x3eee3388	0.4652369
41	0x3ef803d4	0.4844042
42	0x3d37c243	0.044862997
43	0xbd12f349	-0.035876546
44	0xbe01c267	-0.12671815
45	0xbea9b8aa	-0.331487
46	0x3e90824f	0.28224418
47	0xbe526910	-0.2054789
48	0xbe80cecf	-0.25157782
49	0xbe9c601a	-0.3054207
50	0xbe4aa08b	-0.19787805
51	0xbcd1c180	-0.025604963
52	0xbe4c386b	-0.19943397
53	0xbe970bb6	-0.29501122
54	0xbe805dd2	-0.2507158
55	0xbe5116ba	-0.20418826
56	0xbdb33a25	-0.087513246
57	0x3e70f8be	0.23532388
58	0x3f19b726	0.6004509
59	0x3ba81bfa	0.005130288
60	0xbe0cef97	-0.13763271
61	0x3ea69cff	0.32541654
62	0x3e121cb1	0.14268757
63	0xbea19d2a	-0.3156522
64	0xb9105800	-0.00013765693
65	0xbe329e1b	-0.17443125
66	0xbdf80990	-0.12111199
67	0xbe997244	-0.2996999
68	0xbe3efeb8	-0.18651855
69	0xbe962796	-0.29327077
70	0x3e5a65aa	0.21327844
71	0xbe55126e	-0.20807812
72	0xbea27565	-0.3173019
73	0xbe30ae74	-0.17254049
74	0x3eb774f8	0.35831428
75	0x3eae3688	0.3402598
76	0x3e804f18	0.25060344
77	0x3de7d3bc	0.11319682
78	0xbe86b31d	-0.26308528
79	0xbee6f238	-0.45106673
80	0xbdcf8b58	-0.101339996
81	0x3bdda5bd	0.0067641423
82	0x3f293c7b	0.6610791
83	0xbf0ee98a	-0.558251
84	0x3e800be8	0.25009084
85	0xbf09af40	-0.53783035
86	0xbab0bd1a	-0.0013484091
87	0x3e050b71	0.12992646
88	0xbcb7daaf	-0.022443144
89	0x3ec3dfda	0.38256723

conv2.bias f4 [10]
0	0x3e55bb28	0.20872176
1	0x3e1892ad	0.14899702
2	0xbd9d95c5	-0.07694582
3	0x3ef827a6	0.4846775
4	0xbbd1c228	-0.006401319
5	0xbe97f382	-0.2967797
6	0x3dc6e027	0.097107224
7	0xbdd8176c	-0.10551342
8	0xbe74307c	-0.2384662
9	0x3e1370ad	0.14398451

conv3.weight f4 [20, 10, 3]
0	0xbd41b441	-0.047291044
1	0xbe886245	-0.26637474
2	0x3e20ad08	0.15691006
3	0x3e94b553	0.2904459
4	0xbda41cf3	-0.08013334
5	0xbe25b512	-0.16182354
6	0xbdd1c39b	-0.10242387
7	0x3e346858	0.17617929
8	0x3ca0d9cf	0.01963511
9	0x3e43a3fa	0.19105521
10	0x3ca69b1b	0.020337632
11	0x3b88ae0b	0.004171138
12	0x3e032bfa	0.12809744
13	0x3d7d06bd	0.061774004
14	0xbe6a1ead	-0.22863264
15	0x3dac99a0	0.08427739
16	0x3dd4c474	0.10389033
17	0xbd32be80	-0.043638706
18	0x3bc2da90	0.005946465
19	0x3e3e29c9	0.18570627
20	0x3d2eeee3	0.04270829
21	0x3e1f89de	0.15579936
22	0x3d20b9a4	0.03923954
23	0x3dced028	0.100982964
24	0x3e690d3f	0.22758959
25	0xbdc7258f	-0.097239606
26	0xbd714c5f	-0.058910724
27	0xbe004953	-0.12527971
28	0x3e5a7081	0.2133198
29	0x3cd496c0	0.02595079
30	0x3c259240	0.0101056695
31	0xbdd42756	-0.10359065
32	0xbdc20837	-0.09474223
33	0x3da98227	0.08276778
34	0xbde81404	-0.11331943
35	0xbdc91913	-0.09819236
36	0xbeae2145	-0.34009758
37	0xbd44b98e	-0.04802852
38	0x3ba0b49f	0.004904344
39	0x3dbbb903	0.091661476
40	0x3d7296bb	0.05922578
41	0xba09d655	-0.0005258073
42	0xbeceff1f	-0.40429017
43	0x3ec8ff25	0.3925716
44	0xbd3ee9da	-0.046609737
45	0x3da5fe60	0.08105159
46	0x3e33dd82	0.17564967
47	0x3bab68c0	0.005230993
48	0xbc940fd6	-0.018073957
49	0x3ce162ed	0.027512992
50	0x3cba496a	0.022740085
51	0xbe1c5284	-0.15265852
52	0xbe26dee7	-0.16295968
53	0xbdfbede2	-0.12301232
54	0x3e4875c0	0.19576168
55	0xbe81b308	-0.25331903
56	0xbdaabcbf	-0.08336782
57	0xbd259973	-0.040429544
58	0x3e4d54f0	0.20051932
59	0x3d9e5888	0.0773173
60	0xbe104343	-0.14088158
61	0x3d908503	0.0705662
62	0xbe3e4c4f	-0.18583797
63	0x3e0cfe73	0.1376894
64	0x3e91dfbb	0.28491005
65	0xbebacf5c	-0.36486328
66	0xbebc582a	-0.36786014
67	0xbccf5ba3	-0.02531225
68	0x3ea040ac	0.3129934
69	0xbddae24e	-0.106876954
70	0x3e24c25e	0.1608977
71	0x3d40da60	0.04708326
72	0x3de4bdfc	0.11169049
73	0xbe4b8568	-0.19875109
74	0xbe5a839c	-0.21339267
75	0xbe2cd9f8	-0.16880023
76	0xbda45637	-0.08024257
77	0x3dcbd0d8	0.09951943
78	0x3d3440c1	0.044007067
79	0xbe4a344d	-0.19746514
80	0x3df58841	0.11988879
81	0xbe131f7f	-0.14367484
82	0xbe0c988b	-0.13730066
83	0x3e2a12b4	0.16608697
84	0xbdb5d65f	-0.08878779
85	0x3ced3100	0.02895403
86	0xbe0a3f8c	-0.13500804
87	0x3d3ce91f	0.04612076
88	0x3dca51cc	0.09878883
89	0x3ce5f69c	0.028071694
90	0xbd4fc12d	-0.050721336
91	0x3d5ef130	0.054429233
92	0xbd3916a1	-0.045187596
93	0x3d502ff5	0.050826985
94	0xbe3fee22	-0.18743184
95	0xbd8c7326	-0.068579
96	0xbddf65f1	-0.10908116
97	0x3d4fdd6f	0.050748285
98	0x3d0f6c6b	0.035015505
99	0xbd57cc63	-0.052685153
100	0xbe141687	-0.14461718
101	0xbd2ec9aa	-0.04267279
102	0x3c922554	0.017840065
103	0xbcab60b3	-0.020920133
104	0xbe1ee66e	-0.1551759
105	0x3dc280f4	0.09497252
106	0xbca81b28	-0.020520762
107	0xbd6ea31a	-0.058261015
108	0xbc8efbb3	-0.017454004
109	0xbe1d6619	-0.15370978
110	0x3bc68fed	0.0060596378
111	0xbddfd3aa	-0.109290436
112	0xbd8ac75a	-0.067763045
113	0x3deff68c	0.11716947
114	0xbd82c6ab	-0.06385549
115	0xbe2a522c	-0.16632909
116	0x3e12224b	0.14270894
117	0xbe49a03b	-0.1969003
118	0xbe17eabb	-0.14835636
119	0xbdf766b0	-0.12080133
120	0xbe5d56d2	-0.2161515
121	0x3e68fdb0	0.22753024
122	0xbeefe00a	-0.46850616
123	0xbe60ccd2	-0.21953133
124	0x3b67e55e	0.0035384516
125	0x3e03582a	0.128266
126	0x3c8e3622	0.017359797
127	0x3e77390e	0.24142858
128	0x3db9e63d	0.090771176
129	0xbeb2e8c2	-0.34943205
130	0xbd6f7ec5	-0.058470506
131	0xbdea0bd5	-0.11428038
132	0xbdd5b423	-0.10434749
133	0x3e1605c8	0.14650643
134	0x3e0bf22c	0.136666
135	0xbcb6d668	-0.022319034
136	0xbdefa8a9	-0.11702091
137	0x3e32af98	0.17449796
138	0x3e4e6037	0.2015389
139	0xbe19f199	-0.15033568
140	0x3dcfb6f8	0.101423204
141	0xbe19a7c0	-0.15005398
142	0xbb75ef00	-0.0037526488
143	0x3e1a300a	0.15057388
144	0x3db185a8	0.08668071
145	0xbe26702a	-0.16253725
146	0xbddbfa03	-0.10741045
147	0xbce2d556	-0.027689617
148	0xbd5ce2ca	-0.05392722
149	0xbe6d6f5d	-0.23187013
150	0x3d6d6f8c	0.057967708
151	0x3db4d5f2	0.08829869
152	0x3dfb7483	0.12278082
153	0x3e893942	0.26801497
154	0xbdc2cab9	-0.095113225
155	0x3e57a6d3	0.21059732
156	0x3e811a29	0.2521527
157	0xbe9fab13	-0.31185207
158	0xbd8d7fbb	-0.06909128
159	0xbe86d5c0	-0.26334953
160	0x3dbba112	0.09161581
161	0x3db6b0a4	0.0892041
162	0x3d86b749	0.065779276
163	0x3d7bca82	0.061472423
164	0xbe43f4f8	-0.19136417
165	0xbda544a5	-0.080697335
166	0x3e115580	0.14192772
167	0xbddf088a	-0.108903006
168	0xbcfca2cc	-0.030839346
169	0x3e39df03	0.18151478
170	0xbe4acdb2	-0.19805029
171	0xbe04a69c	-0.12954181
172	0x3e0d5fec	0.13806123
173	0x3dbd252c	0.092356056
174	0xbd5d13ed	-0.05397408
175	0x3e894f9e	0.26818556
176	0xbe7590ad	-0.2398097
177	0xbc94b25b	-0.018151453
178	0xbd86e6a5	-0.06586961
179	0x3e0f52d2	0.13996437
180	0x3c3a9399	0.011387729
181	0x3e26c2ff	0.16285323
182	0x3e8392bb	0.25697884
183	0x3d9160eb	0.07098564
184	0x3d2ba6b3	0.041907024
185	0xbde912c3	-0.11380532
186	0xbe1d8a27	-0.15384732
187	0x3e544e97	0.20733105
188	0x3e3a61bf	0.1820135
189	0x3e60c050	0.21948361
190	0x3d3e8f19	0.046523187
191	0xbe4014ad	-0.18757887
192	0xbe15e1c9	-0.14636911
193	0x3e8223ad	0.25417843
194	0x3d1d6c23	0.038433205
195	0xbd8d9c43	-0.0691457
196	0x3d223d08	0.039608985
197	0x3d961818	0.07328814
198	0x3da42876	0.0801553
199	0xbecc63d9	-0.39919928
200	0x3d3c950e	0.046040587
201	0x3e27f118	0.16400564
202	0xbdfc88f8	-0.12330812
203	0x3d586838	0.052833766
204	0xbd5e0d0b	-0.054211657
205	0x3f367066	0.71265256
206	0xbe21cb33	-0.1580017
207	0xbc08e942	-0.008356394
208	0xbf033a3e	-0.51260746
209	0xbde4551a	-0.11149044
210	0xbce00bb7	-0.027349336
211	0x3e82a60b	0.25517306
212	0xbd01dd33	-0.031705093
213	0xbce808cb	-0.028324505
214	0xbef89703	-0.48552713
215	0xbdd659a5	-0.10466317
216	0xbf0d8bec	-0.5529163
217	0xbe53d5c0	-0.20687008
218	0x3d2c180d	0.042015124
219	0x3f237a9e	0.63858974
220	0xbdb88915	-0.09010521
221	0xbe489285	-0.19587143
222	0x3d8059c7	0.06267124
223	0x3e9c284d	0.30499497
224	0xbc162659	-0.009164416
225	0x3da44344	0.080206424
226	0x3e18b098	0.14911115
227	0xbc951c40	-0.018201947
228	0xbd72b170	-0.05925125
229	0xbb49d21b	-0.0030795399
230	0x3e850044	0.25976765
231	0xbe19141a	-0.14949074
232	0x3b938000	0.004501343
233	0xbe1620f0	-0.14661002
234	0x3d5c962e	0.05385416
235	0x3e84a962	0.2591048
236	0xbed87a87	-0.4228098
237	0x3cab05b8	0.02087675
238	0xbeaa9cf4	-0.3332287
239	0x3d9fedf1	0.078090556
240	0xbe28841c	-0.16456646
241	0x3b35a80a	0.0027718567
242	0x3df5dec2	0.12005378
243	0xbe1acf8c	-0.15118235
244	0x3ebbcc4b	0.366793
245	0x3d803b8a	0.06261356
246	0x3e1063fe	0.14100644
247	0x3dc0d3b6	0.09415381
248	0xbd64f817	-0.05590066
249	0x3e3a1cb8	0.18175018
250	0x3d66d432	0.05635471
251	0xbe603fc6	-0.21899328
252	0xbd3113fb	-0.043231945
253	0x3d9fc0c8	0.07800442
254	0xbe0a5820	-0.1351018
255	0xbdd7c1a2	-0.105349794

conv3.bias f4 [20]
0	0x3b99febd	0.0046995566
1	0x3c95bfcf	0.018279938
2	0x3de27db0	0.11059129
3	0x3d557f2a	0.052123226
4	0xbded8555	-0.11597697
5	0xbe125af2	-0.14292505
6	0xbc8850d1	-0.016640099
7	0xbe06acfc	-0.13151926
8	0xbd1094b5	-0.035298068
9	0x3dd76134	0.10516587
10	0xbe2911ae	-0.1651065
11	0x3c541935	0.012945463
12	0x3ce6cd51	0.028174074
13	0xbd7cb10d	-0.061692286
14	0x3db8cd8c	0.0902358
15	0xbd2251ca	-0.03962878
16	0xbd7aa469	-0.06119195
17	0xbc54017e	-0.012939809
18	0x3bd8f85d	0.006621404
19	0xbd81e4f6	-0.06342499

linear.0.weight f4 [128, 200]
0	0xbd178dcc	-0.037000462
1	0xbd3282c4	-0.04358174
2	0x3e72edc0	0.23723507
3	0x3d015fc3	0.031585466
4	0xbd70f39e	-0.05882608
5	0xbd5477fd	-0.051872242
6	0x3e550542	0.20802787
7	0x3e2551b0	0.16144443
8	0xbc2fc5b4	-0.010728288
9	0xbdd3dd3c	-0.103449315
10	0xbc80fe58	-0.01574628
11	0x3e02f768	0.1278969
12	0xbd967cc8	-0.07348019
13	0xbbe471d2	-0.0069715763
14	0x3dafe2e4	0.08588198
15	0x3d5dc3b8	0.05414173
16	0x3d3592cc	0.04432945
17	0xbe052232	-0.13001326
18	0x3bf8ce2b	0.0075929365
19	0x3f161e90	0.58640385
20	0xbcdbe917	-0.026844544
21	0xba8da737	-0.001080728
22	0xbce1a51e	-0.027544554
23	0x3cee0926	0.029057097
24	0xbb06390d	-0.0020480782
25	0xbd54d1cb	-0.051957887
26	0x3e0d451e	0.13795897
27	0x3e0edc0d	0.1395113
28	0xbe122bd1	-0.14274527
29	0x3e543624	0.20723778
30	0x3d3f123c	0.04664825
31	0xbd24370e	-0.040091567
32	0x3d99ab6c	0.07503399
33	0x3c8760b0	0.016525596
34	0xbd82e1c1	-0.063907154
35	0x3c2df620	0.010617763
36	0x3d3a1282	0.045427807
37	0x3c205fc0	0.009788454
38	0xbd85f8e7	-0.06541615
39	0xbcf26ae0	-0.029591978
40	0xbe1fdbda	-0.1561121
41	0x3ccd0d4f	0.02503076
42	0x3e2160f0	0.15759635
43	0x3df5870f	0.11988651
44	0x3e619f2b	0.22033374
45	0xbea818d7	-0.3283145
46	0xbe684850	-0.22683835
47	0x3e301bf8	0.17198169
48	0x3cc4ec95	0.024038592
49	0xbde1ca04	-0.110248595
50	0x3df51894	0.119675785
51	0xbdae5c17	-0.085136585
52	0x3ca3ed8d	0.020010734
53	0x3c65e834	0.014032412
54	0xbe0e2fa6	-0.13885364
55	0x3cd9d162	0.0265891
56	0x3cd31534	0.025766946
57	0x3d787e5c	0.06066738
58	0xbcec3f57	-0.028838797
59	0x3e0b1c93	0.13585119
60	0x3d2f5afa	0.04281137
61	0xbd51e502	-0.05124379
62	0x3d1d656b	0.038426798
63	0x3d7e51d1	0.062089745
64	0x3d61a25d	0.055086482
65	0xbc93e107	-0.018051637
66	0x3c3fcf06	0.011707073
67	0x3d895fd1	0.06707729
68	0xbda9131f	-0.082556
69	0xbfb346e1	-1.4006006
70	0x3e9996d3	0.29997882
71	0x3df65e77	0.120297365
72	0x3d4df1dd	0.050279487
73	0xbccd996a	-0.025097568
74	0xbc3002fe	-0.010742901
75	0xbd8f56e5	-0.06998996
76	0xbdb9d8be	-0.090745434
77	0x3dd871a2	0.10568549
78	0x3e1a5fc8	0.150756
79	0xbfd46671	-1.6593763
80	0xbda829dc	-0.08211109
81	0x3c789c25	0.0151739465
82	0xbca3ae46	-0.019980561
83	0x3ba4f574	0.005034143
84	0xbd7d4ff0	-0.061843812
85	0xbe3b38b6	-0.18283352
86	0x3c297de7	0.010344959
87	0xbd96a3f3	-0.073554896
88	0xbe207650	-0.15670133
89	0x3d11f830	0.03563708
90	0x3d92ec78	0.07174009
91	0xbc9c2217	-0.019059224
92	0xbcb534e8	-0.022119954
93	0x3d39a773	0.045325708
94	0x3dae70e2	0.085176244
95	0x3dab4020	0.0836184
96	0x3d364a9d	0.04450475
97	0xbc5057c2	-0.012716236
98	0x3df8886f	0.12135398
99	0xbf7c8534	-0.9864075
100	0xbb3c177b	-0.002870052
101	0xbcc0d8e4	-0.023540922
102	0xbd12efdd	-0.035873283
103	0xbc502a8c	-0.012705456
104	0x3be288c0	0.0069132745
105	0xbd499d5f	-0.049222346
106	0xbcb610aa	-0.022224743
107	0x3cfa11f0	0.030526131
108	0x3cac32a0	0.021020234
109	0x3c221948	0.009893723
110	0xbc47bd48	-0.012191124
111	0x3d9d2c2f	0.07674443
112	0x3d365922	0.044518597
113	0x3c9dbd85	0.019255409
114	0xbe1f63e4	-0.15565449
115	0x3d996eca	0.074918345
116	0xbe165578	-0.14681041
117	0xbc246d5c	-0.010035839
118	0x3d2a3c11	0.04156119
119	0xbd947956	-0.072497055
120	0xbd6fa073	-0.058502626
121	0xbe0ef3e6	-0.13960227
122	0xbd989ef8	-0.07452196
123	0xbbb58c34	-0.005540395
124	0x3e4a7b76	0.19773659
125	0x3d9ffcc3	0.07811882
126	0x3e420c9a	0.1895012
127	0xbdb1c71e	-0.08680557
128	0xbdaae73c	-0.08344886
129	0x3c8e7f4a	0.01739468
130	0x3ca7d5c0	0.020487666
131	0xbd4115ec	-0.047140047
132	0x3d2b5d4c	0.04183702
133	0x3c067055	0.008205493
134	0x3d652176	0.055940114
135	0xbd6c9ee9	-0.057768736
136	0xbc8c4741	-0.01712382
137	0x3d2abc1a	0.041683294
138	0xbd085690	-0.033285677
139	0x3cb23410	0.021753341
140	0x3ca16deb	0.019705733
141	0xbe087ebc	-0.13329595
142	0xbd50b071	-0.050949518
143	0x3e007893	0.12545995
144	0x3d5fb1fa	0.05461309
145	0x3c78d836	0.015188267
146	0xbd6449b8	-0.055734366
147	0x3e1019d8	0.14072359
148	0xbe2e147a	-0.16999999
149	0xbb4148c6	-0.002949284
150	0xbda2efd7	-0.07955902
151	0x3d375e05	0.0447674
152	0xbe2bf352	-0.16792038
153	0xbdc5f773	-0.09666338
154	0xbcc8aa0d	-0.024495149
155	0xbb965d81	-0.0045887833
156	0x3d2e91dc	0.04261957
157	0x3e2d3fde	0.16918895
158	0x3c35aec6	0.0110890325
159	0xbdd66854	-0.10469118
160	0x3d150717	0.036383715
161	0xbd51d4d0	-0.051228344
162	0xbcc84dc7	-0.02445115
163	0x3d80f878	0.06297392
164	0xbe311920	-0.1729474
165	0x3daa789a	0.08323784
166	0x3e0bdd74	0.13658696
167	0xbd2a06f3	-0.041510534
168	0x3a7038d2	0.00091637403
169	0xbd9c92db	-0.07645198
170	0x3df774c8	0.12082821
171	0xbceab7b9	-0.028652059
172	0xbd665f6e	-0.056243353
173	0xbd4c2679	-0.049841378
174	0xbdb5318a	-0.088473395
175	0xbe61a2ea	-0.22034803
176	0x3e065c1d	0.13121076
177	0xbae241a3	-0.0017261993
178	0xbdd04f7e	-0.10171412
179	0x3d9c31ad	0.076266624
180	0xbda39519	-0.079874225
181	0xbd17786d	-0.03698008
182	0x3e783788	0.24239933
183	0xbe05b9f1	-0.13059212
184	0xbd6c66ea	-0.057715334
185	0x3dd88756	0.10572688
186	0x3dacbc68	0.08434373
187	0x3daba89f	0.08381771
188	0xbe308a63	-0.1724029
189	0x3e0508a1	0.12991573
190	0x3dc88f9d	0.09793017
191	0xbdaa581b	-0.08317586
192	0x3ddb821b	0.10718175
193	0x3e8258e7	0.25458452
194	0x3cfbfad8	0.03075926
195	0xbcb136a4	-0.0216325
196	0xbdd52d6b	-0.104090534
197	0x3c857213	0.016289746
198	0x3e121e27	0.14269315
199	0x3a94065a	0.0011293397
200	0x3dfb6252	0.122746125
201	0x3dcbb114	0.09945884
202	0xbe2de6fb	-0.16982643
203	0x3cd88120	0.02642876
204	0x3d3df52f	0.046376403
205	0x3d841795	0.064498104
206	0xbe2c9e26	-0.16857204
207	0xbdcb710d	-0.09933672
208	0xbdb1619d	-0.086611964
209	0x3d8cae44	0.06869176
210	0x3d46e302	0.048556335
211	0xbdbc45c3	-0.091929935
212	0x3db03b84	0.08605102
213	0x3da9b53e	0.08286522
214	0xbe49ce6a	-0.19707647
215	0xbdc3b99e	-0.09556888
216	0xbcb2ddc4	-0.021834262
217	0x3cbaf986	0.02282406
218	0x3b0f2f75	0.0021848355
219	0xbf26dee2	-0.6518384
220	0x3da4e190	0.08050835
221	0xbd087cc6	-0.03332212
222	0xbd1b0bbd	-0.03785299
223	0xbd5e325f	-0.054247256
224	0xbc4cd2bc	-0.012501415
225	0x3d7979cb	0.060907166
226	0xbd0f174b	-0.034934323
227	0xbdf18ab6	-0.11794035
228	0x3dacbb3b	0.08434149
229	0xbe6012b1	-0.2188213
230	0xbcc9ceba	-0.024634708
231	0xbb58f1c0	-0.0033103079
232	0xbd1b58f8	-0.037926644
233	0xbc2f1190	-0.01068534
234	0xbd7e9155	-0.06215032
235	0xbd74570f	-0.059653338
236	0x3d10d7ac	0.03536193
237	0x3d31a492	0.043369837
238	0xbd5b63a8	-0.053561836
239	0x3d47c3de	0.048770778
240	0x3d3e93c8	0.046527654
241	0xbc269be8	-0.010169007
242	0xbe0c1073	-0.1367815
243	0xbdfa74dd	-0.12229321
244	0xbe353a6b	-0.17698066
245	0x3ed6308b	0.4183391
246	0x3e75749d	0.23970266
247	0xbdf55ed3	-0.11980977
248	0xbe3d7f8b	-0.18505685
249	0x3e22056d	0.15822382
250	0xbe22e288	-0.15906727
251	0x3d24f500	0.040272713
252	0x3d816770	0.06318557
253	0x3d429c6f	0.047512468
254	0x3e0c6851	0.13711669
255	0x3d174923	0.036934983

linear.0.bias f4 [128]
0	0x3c99c302	0.018769745
1	0xbbd14e41	-0.0063875024
2	0xbc82f72e	-0.015987005
3	0x3d749383	0.05971099
4	0xbcaed437	-0.021341426
5	0x3b7957ee	0.0038046795
6	0x3dac55db	0.08414813
7	0x3b1f8dec	0.0024346067
8	0x3bd33b45	0.0064462745
9	0x3c2de4a6	0.010613596
10	0xbd377f77	-0.044799294
11	0x3d149999	0.036279295
12	0x3d342f08	0.043990165
13	0xbce3489b	-0.027744582
14	0x3c800423	0.015626973
15	0xbc693625	-0.0142341005
16	0xbd0faa45	-0.03507449
17	0xbc702316	-0.014656803
18	0x3cddee1e	0.027091082
19	0xbd0697ff	-0.0328598
20	0x3d3d8f70	0.04627937
21	0x3c78141a	0.015141511
22	0x3d1389dd	0.03602015
23	0xbda0aaba	-0.078450635
24	0x3d0f1fe6	0.03494253
25	0xbd782fb1	-0.060592357
26	0xbce059e3	-0.027386611
27	0xbd75ba21	-0.05999196
28	0x3d5058b7	0.050865855
29	0xbd124d84	-0.035718456
30	0x3cd59d45	0.026075969
31	0x3aa97a80	0.0012930185
32	0x3d52a6e9	0.05142871
33	0x3d1f26fe	0.038855545
34	0xbd932417	-0.07184618
35	0x3b5275c8	0.003211366
36	0x3d32decf	0.043669518
37	0xbd837c2f	-0.064201705
38	0x3d4ae34e	0.04953318
39	0x3d2fe137	0.04293939
40	0x3cea3395	0.02858905
41	0xbacdbeb6	-0.0015697095
42	0x3bbed9bc	0.005824296
43	0xbc8a9301	-0.0169158
44	0xbd21bc04	-0.039485946
45	0x3d0a6ce9	0.03379527
46	0x3d4866a7	0.048926022
47	0xbc22c2f8	-0.0099341795
48	0xbd88fdc4	-0.06689027
49	0xbbd08992	-0.006364056
50	0x3bd65839	0.0065412787
51	0x3d02d7e7	0.03194418
52	0xbd2aef67	-0.041732218
53	0xbbf89a29	-0.0075867367
54	0xbcbf180a	-0.023326892
55	0xbcc85a8f	-0.024457244
56	0x3d4dc1c1	0.050233606
57	0xbd0a20fd	-0.033722866
58	0xbc94b5de	-0.018153127
59	0xbd1314cb	-0.0359085
60	0x3d055d28	0.032559544
61	0xbd3098f5	-0.04311462
62	0x3d43ca18	0.047800153
63	0x3dbd56b8	0.09245056
64	0xbd0c1bca	-0.03420619
65	0x38db2f2c	0.0001045152
66	0xbd3ee93b	-0.046609145
67	0xbbda6ac8	-0.0066655613
68	0x38d400cc	0.00010109096
69	0x3d5bf7f8	0.05370328
70	0x3d0acd0b	0.03388695
71	0xbd069945	-0.032861013
72	0xbd5ac3ab	-0.05340926
73	0x3ce1784c	0.027523182
74	0xbd02c0b4	-0.031922057
75	0x3d3db7dc	0.04631792
76	0x3be77ae3	0.00706421
77	0x3d013d5b	0.031552654
78	0x3aa55771	0.001261456
79	0xbcd86dab	-0.026419481
80	0xbc311d35	-0.010810186
81	0xbc00da3a	-0.007864529
82	0xbcf31417	-0.029672666
83	0x3aa551b0	0.0012612846
84	0xbcc80f89	-0.02442147
85	0xbd1474f8	-0.036244363
86	0x39d79861	0.00041121527
87	0x3bfde3b0	0.0077480897
88	0xbd52fb76	-0.051509343
89	0xbcbd8866	-0.023136329
90	0xbd1348f2	-0.035958238
91	0x3cabe69d	0.020983988
92	0xbd4196a5	-0.047262806
93	0x3c5da41e	0.013527898
94	0xbd7feceb	-0.062481802
95	0xbc922529	-0.017839985
96	0x3d424241	0.047426466
97	0x3d5858e7	0.05281916
98	0x3c9e2db0	0.019308895
99	0x3bb1ac30	0.0054221377
100	0x3cf6f8cf	0.030147938
101	0xbcbcec4d	-0.023061896
102	0x3d383de9	0.044980917
103	0xbd2f89f5	-0.042856175
104	0x3d3a4b48	0.04548195
105	0xbc094897	-0.008379123
106	0xbcc3701b	-0.023857167
107	0x3d5609f2	0.05225558
108	0x3d5716aa	0.05251185
109	0xbc7d201d	-0.015449551
110	0x3c6ff25b	0.014645184
111	0x3d201ccb	0.03908996
112	0x3cc31c59	0.023817228
113	0xbd45ad46	-0.04826095
114	0xbcd36336	-0.025804143
115	0x3cd785ec	0.026308976
116	0x3d0bb929	0.03411213
117	0xbc40bede	-0.011764256
118	0x3d3736be	0.04472994
119	0x3ce00a5e	0.027348693
120	0x3cee5f87	0.029098285
121	0xbd733053	-0.059372257
122	0x3d129538	0.035786837
123	0x3d41f5b6	0.04735347
124	0x3bca03e2	0.0061650136
125	0x3cff32c6	0.03115214
126	0x3c7e8b1c	0.015536096
127	0xbd6d03f3	-0.057865094

linear.1.weight f4 [64, 128]
0	0xbe9ae7d4	-0.30254996
1	0x3e368b96	0.17826685
2	0x3e42d763	0.19027476
3	0xbc32723d	-0.010891494
4	0xbdb16390	-0.08661568
5	0xbde299fd	-0.11064527
6	0x3e023004	0.12713629
7	0xbe0082b9	-0.12549867
8	0x3cf00c37	0.0293027
9	0x3ce6d734	0.028178789
10	0xbd05532d	-0.032550026
11	0xbc5ad8a7	-0.013357318
12	0x3d5aca1b	0.0534154
13	0xbdf5cb9f	-0.12001728
14	0xbe803c79	-0.25046137
15	0xbdde53ea	-0.10855849
16	0x3d22d47e	0.03975343
17	0xbe184546	-0.14870176
18	0xbe083664	-0.13301998
19	0x3db151f1	0.08658207
20	0x3d9c9419	0.07645435
21	0x3cefe6df	0.029284893
22	0xbd8f70eb	-0.07003959
23	0xbd144884	-0.03620197
24	0x3db75075	0.08950893
25	0x3de964e4	0.113961965
26	0xbd2b73d8	-0.041858524
27	0x3e1eb8c1	0.15500166
28	0xbe9c760b	-0.3055881
29	0xbb2a7a72	-0.0026012924
30	0xbd2e008f	-0.042481
31	0xbe60c2b1	-0.21949269
32	0xbe6e97eb	-0.2330014
33	0x3d566339	0.05234072
34	0x3d0354d7	0.03206333
35	0xbdd70047	-0.104981
36	0xbd2b11c8	-0.041765004
37	0xbe004ba0	-0.12528849
38	0xbc8d0627	-0.017214848
39	0xbe3c18f0	-0.18368888
40	0x3e9f69e0	0.31135464
41	0x3d979c93	0.07402911
42	0xbe06f94c	-0.13181037
43	0x3d58542f	0.05281466
44	0xbd7e9fd9	-0.06216416
45	0x3cffaa0c	0.031209014
46	0xbd30e7cf	-0.04318982
47	0x3cef19b8	0.029187068
48	0x3e07abcd	0.1324913
49	0xbe06bda6	-0.13158283
50	0x3e7ed81e	0.2488713
51	0x3da37d8c	0.079829305
52	0xbe425362	-0.1897712
53	0xbea1efb9	-0.31628206
54	0xbcc949f1	-0.02457139
55	0x3e4cd4b0	0.20003009
56	0x3d882af5	0.066488184
57	0x3b2ad775	0.0026068364
58	0x3e04274f	0.1290562
59	0x3e73d1e6	0.23810539
60	0xbec0df0b	-0.37670168
61	0xbe2ec464	-0.17067105
62	0x3cf7802d	0.030212486
63	0x3dbeac6d	0.09310231
64	0xbe295a12	-0.16538265
65	0xbbdfe032	-0.006832146
66	0xbe5783d7	-0.21046387
67	0xbd838d99	-0.06423492
68	0xbd3b0a7f	-0.045664307
69	0xbdf4822e	-0.11938892
70	0x3e4e17c7	0.20126258
71	0x3e085d4c	0.1331684
72	0x39de7b9e	0.00042435242
73	0x3e54be1f	0.2077565
74	0xbb36ee8f	-0.0027913188
75	0x3e35ee4b	0.17766683
76	0x3e251b9f	0.16123818
77	0x3d3da396	0.046298586
78	0x3e748217	0.2387775
79	0x3d1c939a	0.0382267
80	0x3d95b56e	0.073099956
81	0x3e934da9	0.28770187
82	0x3e1bb651	0.15206267
83	0x3deaef1f	0.1147139
84	0x3e2bb252	0.16767243
85	0xbda1a8c8	-0.078935206
86	0x3e04e5ad	0.1297824
87	0x3ee305bc	0.44340312
88	0x3e13a63e	0.14418885
89	0xbec5293d	-0.38508025
90	0xbccccb6a	-0.02499934
91	0xbd6b81dd	-0.057496894
92	0x3d6e603d	0.05819725
93	0xbe16ee49	-0.14739336
94	0x3da50290	0.080571294
95	0x3c28917f	0.010288595
96	0x3ce2b6f2	0.027675126
97	0xbd955d55	-0.07293192
98	0xbdc4059c	-0.095713824
99	0xbe30764b	-0.17232625
100	0x3db9580c	0.09049997
101	0x3ccde99f	0.025135813
102	0xbe28c031	-0.16479565
103	0x3ea7811b	0.32715687
104	0xbbd87ff6	-0.006607051
105	0x3e0489c4	0.12943178
106	0x3d295063	0.04133643
107	0x3d56cb2b	0.05243985
108	0xbe644b87	-0.22294436
109	0x3e22ab3c	0.15885633
110	0x3e29464f	0.16530727
111	0x3d527821	0.051384095
112	0xbcd4c329	-0.025971966
113	0x3e87b0fb	0.26502213
114	0x3ecca28a	0.39967757
115	0xbcf832c2	-0.03029764
116	0xbd366297	-0.044527616
117	0xbdd91106	-0.1059895
118	0x3e31c377	0.1735972
119	0xbdf5fbb3	-0.120108984
120	0xbe9a5f25	-0.30150715
121	0xbdb97906	-0.090562865
122	0xbe180d94	-0.1484893
123	0x3ddfa0ac	0.109193176
124	0x3dfb4e7d	0.1227083
125	0x3db20537	0.08692401
126	0x3cdda917	0.027058167
127	0x3e161283	0.14655499
128	0xbe9c13ad	-0.3048376
129	0x3e548833	0.20755081
130	0x3e3bd89d	0.1834435
131	0x3db63d71	0.08898438
132	0x3c214dac	0.009845179
133	0xbe688b2d	-0.22709341
134	0x3dccdc14	0.10002914
135	0xbd51c71e	-0.051215284
136	0x3d0189b5	0.03162547
137	0xbd4d82c2	-0.05017353
138	0x3c85c690	0.016330034
139	0xbdf2bef1	-0.118528254
140	0x3d966f6e	0.07345472
141	0xba703e80	-0.00091645867
142	0xbe51bac5	-0.20481403
143	0xbdc0d473	-0.094155215
144	0xbc97f19c	-0.018547826
145	0xbe1fd77e	-0.15609547
146	0xbd20b5d3	-0.0392359
147	0xbd43b788	-0.04778245
148	0x3d89cad4	0.067281395
149	0x3e014a4b	0.12625997
150	0x3cb4eb3b	0.022084823
151	0xbe1fda95	-0.15610726
152	0x3c2b1adb	0.010443415
153	0x3da65338	0.081213415
154	0xbd9b72e4	-0.07590273
155	0x3dc1270a	0.09431274
156	0xbeb33fb0	-0.35009527
157	0x3d4eed27	0.050519135
158	0xbce0c53b	-0.027437797
159	0xbe5ff255	-0.21869786
160	0xbdd3f57e	-0.10349558
161	0xbd2a1389	-0.041522536
162	0xbd77db0c	-0.060511634
163	0xbd28a299	-0.04117069
164	0xbbaa35aa	-0.0051943855
165	0xbdbb495c	-0.091448516
166	0xbdf1cbd3	-0.118064545
167	0xbe5eccf7	-0.21757875
168	0x3e6cf4f9	0.23140325
169	0x3dc6fb68	0.09715921
170	0xbd5852ec	-0.052813455
171	0x3db02fea	0.08602889
172	0xbe2cf0b6	-0.16888699
173	0xbd0e50f3	-0.034745168
174	0xbd98f57b	-0.07468697
175	0xbcf4ff02	-0.029906753
176	0x3e67421b	0.22583811
177	0xbe01120a	-0.12604538
178	0x3e2259e3	0.15854602
179	0x3d9a5633	0.075359724
180	0xbe28f910	-0.1650126
181	0xbe9ea164	-0.30982506
182	0x3d97716a	0.07394679
183	0x3e1656c3	0.14681534
184	0x3dc1946b	0.094521366
185	0xbd002f6c	-0.031295225
186	0x3e07d1b3	0.13263588
187	0x3e366275	0.17810996
188	0xbea7f038	-0.3280046
189	0xbe5ae6c3	-0.21377091
190	0xbce69265	-0.028145978
191	0x3e188a11	0.14896418
192	0xbdde0b70	-0.10842025
193	0xbd515311	-0.05110461
194	0xbe22d2e7	-0.15900765
195	0xbde261b5	-0.110537924
196	0x3ca1b7c4	0.019740947
197	0xbe2a8858	-0.16653574
198	0x3e492b83	0.19645505
199	0x3e4bf25a	0.19916669
200	0xbd055199	-0.03254852
201	0x3e25e298	0.1619972
202	0xbe212453	-0.15736513
203	0x3e060b54	0.13090259
204	0x3e5d3c88	0.21605122
205	0x3d24b720	0.040213704
206	0x3df0db26	0.11760549
207	0x3c772b8a	0.015086064
208	0x3d669bec	0.056301042
209	0x3e5d75b8	0.21626937
210	0x3e805d29	0.25071076
211	0x3d35f640	0.044424295
212	0x3e15d7fc	0.14633173
213	0xbd2b5f3f	-0.04183888
214	0x3e2dc539	0.16969766
215	0x3ec78c24	0.38974106
216	0x3d806504	0.06269267
217	0xbea4f5d6	-0.32218808
218	0x3d09494e	0.033517174
219	0x3c594d00	0.013262987
220	0x3dc52702	0.09626581
221	0x3c8b7cbe	0.017027255
222	0x3e4dae4d	0.20086022
223	0x3ca45d95	0.020064155
224	0xbc1c6566	-0.00954566
225	0xbdd12dbb	-0.102138005
226	0x3d8db764	0.069197446
227	0xbceb88ae	-0.028751697
228	0x3e16d4cc	0.14729613
229	0x3dd0d058	0.101959884
230	0xbe1172e8	-0.1420399
231	0x3ec43691	0.3832288
232	0xbd6d710a	-0.05796913
233	0x3e15c8b8	0.1462735
234	0x3e1dacda	0.15397969
235	0x3e10b013	0.14129667
236	0xbe4d5391	-0.2005141
237	0x3d22d65c	0.03975521
238	0x3e378f12	0.1792567
239	0x3d837dbf	0.064204685
240	0xbdc47600	-0.09592819
241	0x3e544bce	0.20732042
242	0x3ea84daa	0.32871753
243	0xbca583c5	-0.020204434
244	0x3dfe3fc9	0.1241451
245	0xbdca9d7a	-0.098933175
246	0x3e068f08	0.131405
247	0xbbb37ed3	-0.005477765
248	0xbe96669c	-0.2937516
249	0xbd4b6924	-0.049660817
250	0xbdc32ee3	-0.09530427
251	0x3d101898	0.035179704
252	0x3e00e94d	0.12588997
253	0x3d6a6c7b	0.05723236
254	0x3e16ded1	0.14733435
255	0x3e4cb3d0	0.19990468

linear.1.bias f4 [64]
0	0x3dc90e2e	0.09817158
1	0x3d713d74	0.058896497
2	0x3dc5815b	0.09643813
3	0xbd73c75a	-0.05951629
4	0xbc8155e9	-0.015788035
5	0xbd257296	-0.04039248
6	0xbd3ef1a2	-0.046617158
7	0xbe2497b2	-0.16073492
8	0xbd6851dd	-0.056718696
9	0xbd749efa	-0.059721924
10	0x3d337d57	0.043820705
11	0x3dc4e7f2	0.096145526
12	0x3d43bbb6	0.047786437
13	0x3d44d350	0.048053086
14	0x3c655ea3	0.013999614
15	0xbc8148ee	-0.015781846
16	0x3c8addcb	0.016951462
17	0xbd22a9c9	-0.0397127
18	0xbe10076f	-0.14065336
19	0x3da1d5af	0.07902085
20	0xbdc230d4	-0.094819695
21	0xbd636e90	-0.055525362
22	0x3ce42d0e	0.027853515
23	0xbd07cb4e	-0.03315287
24	0xbd3d55a5	-0.046224255
25	0x3ca51643	0.020152217
26	0x3d81ee50	0.063442826
27	0x3d129044	0.035782114
28	0xbdbb9b0d	-0.09160433
29	0xbd9d342a	-0.07675965
30	0x3d1ae8c4	0.03781964
31	0x3db7a565	0.089670934
32	0x3cfc0430	0.030763716
33	0xbc7f0514	-0.015565176
34	0xbd1028bd	-0.0351951
35	0xbdaa8404	-0.08325961
36	0x3d72fee2	0.059325106
37	0x3e09a754	0.13442737
38	0xbc775c01	-0.015097619
39	0x3df2c1ae	0.11853348
40	0x3c5f2235	0.013618995
41	0xbce84837	-0.028354747
42	0x3cba32a2	0.022729222
43	0x3c3200ac	0.010864418
44	0x3d2bc9a5	0.04194035
45	0xbbc8b798	-0.0061254017
46	0xbd1b541f	-0.03792202
47	0x3ddc5c08	0.10759741
48	0xbd80e84f	-0.06294309
49	0x3c47677b	0.012170668
50	0x3dc7e7c6	0.09761004
51	0x3d231701	0.03981686
52	0xbcc6d4d5	-0.024271408
53	0x3d5c53aa	0.053790726
54	0xbd3f0f62	-0.04664553
55	0x3d9e9595	0.07743374
56	0x3cbe9467	0.023264123
57	0xbd453be1	-0.048152808
58	0xbd669f2b	-0.05630414
59	0xbc11aaf2	-0.008890854
60	0x3e057936	0.1303452
61	0x3c47cc1d	0.0121946605
62	0x3e1772f5	0.14789946
63	0xbb9f3e2e	-0.0048597073

linear.2.weight f4 [2, 64]
0	0xbc5f9493	-0.013646263
1	0x3c06eccd	0.008235169
2	0xbd2c030a	-0.041995086
3	0xbcf3935b	-0.02973335
4	0xbe45ea67	-0.19327699
5	0x3e79a674	0.24379903
6	0xbe0688aa	-0.1313807
7	0x3dfb6ce4	0.122766286
8	0x3e392a1b	0.18082468
9	0xbdd669e0	-0.10469413
10	0xbed04c4c	-0.4068321
11	0xbea617ae	-0.3243994
12	0x3e07aa36	0.13248524
13	0x3d758565	0.059941668
14	0x3cfd30b4	0.030907013
15	0x3e0c2721	0.13686801
16	0x3ca787e6	0.020450544
17	0x3e9da1f4	0.30787623
18	0x3ead812b	0.3388761
19	0xbe230f0d	-0.1592371
20	0x3ccee640	0.025256276
21	0x3e61574d	0.22005959
22	0xbd95001f	-0.07275414
23	0xbdd912a2	-0.10599257
24	0x3e60fd46	0.21971616
25	0xbe9873b6	-0.2977578
26	0x3dc3e8ab	0.09565862
27	0xbc93c609	-0.018038766
28	0xbd360eea	-0.044447817
29	0x3e4c97e6	0.1997982
30	0xbe4e1b28	-0.20127547
31	0x3c299163	0.010349604
32	0xbd4034da	-0.046925403
33	0x3e9ee539	0.31034258
34	0xbdfc1f24	-0.12310627
35	0x3e9c8c4d	0.3057579
36	0xbe26904c	-0.16265982
37	0xbe81309e	-0.25232404
38	0x3c92eb14	0.01793436
39	0xbe8303fd	-0.2558898
40	0xbe35644d	-0.17714043
41	0x3e1e103d	0.15435882
42	0xbe896910	-0.2683797
43	0x3e211aca	0.15732875
44	0xbeb61558	-0.3556316
45	0xbe7e256c	-0.24818963
46	0xbd238f9f	-0.03993189
47	0xbe9c32da	-0.30507547
48	0xbc9dc8af	-0.019260732
49	0xbe8d8861	-0.2764311
50	0xbe9b9bd8	-0.30392337
51	0x3dc6b397	0.09702223
52	0x3da9693e	0.082720265
53	0xbec7e5ef	-0.39042613
54	0x3e27cae4	0.1638599
55	0xbe89fa46	-0.26948756
56	0xbe39be55	-0.18139012
57	0x3e37bdaa	0.17943445
58	0x3ea6b4c4	0.32559788
59	0x3ce803bb	0.028322091
60	0xbe99fe76	-0.3007695
61	0xbe19212f	-0.14954065
62	0xbdab6de4	-0.08370569
63	0x3e172d97	0.14763485
64	0xbe7c946f	-0.24665998
65	0xbe366506	-0.17811975
66	0xbe9d9464	-0.30777276
67	0x3e6bab24	0.23014504
68	0x3d6c1605	0.057638187
69	0x3d9e54a0	0.07730985
70	0x3e4d7285	0.20063217
71	0x3eb0a4aa	0.3450063
72	0xbe312203	-0.1729813
73	0x3e179b7b	0.14805405
74	0xbcf87148	-0.030327454
75	0x3dc1d967	0.09465294
76	0xbe216cff	-0.15764235
77	0xbe852ce1	-0.26010802
78	0xbe537c1e	-0.20652816
79	0xbdf816bf	-0.121137135
80	0xbe7ef4df	-0.24898098
81	0x3ce36e4f	0.02776256
82	0x3d795d53	0.060880017
83	0xbe7ae46d	-0.245012
84	0x3e799cb5	0.24376185
85	0xbe3f8c70	-0.18705916
86	0xbea4ee76	-0.3221318
87	0x3d3ce71d	0.046118844
88	0xbe278f0b	-0.1636316
89	0x3cc5f4c9	0.024164574
90	0xbe463fb2	-0.19360235
91	0x3e10f525	0.14156015
92	0x3e7a1c26	0.244248
93	0xbd41827f	-0.04724359
94	0x3de98d8a	0.114039496
95	0xbe876e1c	-0.26451194
96	0x3e44ec83	0.19230847
97	0x3d4cc1c8	0.04998949
98	0x3e2e1ce3	0.17003207
99	0xbddd7307	-0.10812955
100	0x3e2719cf	0.16318439
101	0xbd7c0bef	-0.06153482
102	0x3e9f405c	0.3110379
103	0xbc2b7166	-0.010464048
104	0x3d8e61bb	0.06952234
105	0xbe14507f	-0.14483832
106	0x3d8cb8c2	0.06871177
107	0xbe3a8c4d	-0.18217583
108	0x3dacaa8c	0.08430967
109	0x3d980d36	0.07424395
110	0x3e8eb4f5	0.27872434
111	0x3d828859	0.063736625
112	0x3e684856	0.22683844
113	0x3d97572b	0.07389673
114	0xbc9e372d	-0.01931342
115	0xbe35ea08	-0.17765057
116	0xbdf45be3	-0.119315885
117	0x3c4dff08	0.012573011
118	0xbe45d129	-0.1931807
119	0x3e06c274	0.13160115
120	0x3dd84bbe	0.10561322
121	0xbde73594	-0.11289516
122	0xbe17f927	-0.14841138
123	0x3e84cac0	0.25935936
124	0xbd25ef36	-0.040511332
125	0x3e3ec8d6	0.186313
126	0xbeb54ff6	-0.35412568
127	0xbe378f55	-0.1792577

linear.2.bias f4 [2]
0	0xbe303e10	-0.17211175
1	0xbcf015de	-0.029307302
